Saved Models/model.pth (torch, 280519 bytes, 6 tensors)

block1.0.weight f4 [256, 11]
0	0x3e9bbc66	0.30417174
1	0x3e3b6f80	0.18304253
2	0xbd049d81	-0.03237677
3	0xbdff8d42	-0.12478115
4	0x3dacc219	0.08435459
5	0xbe4e1746	-0.20126066
6	0xbe34f92c	-0.17673177
7	0xbeb61d3b	-0.35569176
8	0xbd862b56	-0.065512344
9	0x3dfbcebf	0.12295293
10	0xbe0c4a6e	-0.13700268
11	0x3d44c573	0.048039865
12	0x3e9f6572	0.31132084
13	0xbe58369d	-0.21114583
14	0xbb839965	-0.004016089
15	0xbe16d5ca	-0.14729992
16	0xbcc6f042	-0.024284486
17	0xbe5b96a2	-0.2144418
18	0x3e06892d	0.13138266
19	0xbeb0ae37	-0.34507915
20	0xbd8b4801	-0.06800843
21	0x3cef614b	0.029221198
22	0x3cf74e08	0.030188575
23	0x3ed885c2	0.4228955
24	0xbe854c77	-0.260349
25	0x3df83e4a	0.12121256
26	0xbe133e63	-0.14379267
27	0x3d219ea1	0.03945792
28	0xbd809b20	-0.06279588
29	0xbcacde9c	-0.021102242
30	0xbe5b4a45	-0.2141505
31	0xbe912ce9	-0.28354576
32	0xbe3738b6	-0.17892727
33	0xbd1993d3	-0.03749449
34	0xbdf2fe60	-0.118649244
35	0xbe3f9451	-0.18708922
36	0xbdd3b4ed	-0.10337243
37	0xbe5ac363	-0.21363597
38	0xbd3f0348	-0.04663399
39	0xbe08af49	-0.13348116
40	0x3c922f6f	0.017844884
41	0x3e2f74b2	0.1713436
42	0xbd74e884	-0.059792057
43	0x3e656b23	0.2240415
44	0x3e02b255	0.12763341
45	0x3ddd404d	0.1080328
46	0x3e8bfa7d	0.27339545
47	0x3d156a5b	0.03647838
48	0xbdf63a2b	-0.120228134
49	0xbe41e889	-0.18936361
50	0xbe811af0	-0.25215864
51	0xbdc3b9de	-0.09556936
52	0xbe84ba0e	-0.25923198
53	0xbe7d3370	-0.24726653
54	0xbed64867	-0.41852114
55	0x3e9a8f69	0.30187538
56	0xbe7661ba	-0.24060717
57	0x3ea3086d	0.31842366
58	0xbc0a761c	-0.008451011
59	0xbbde9702	-0.006792904
60	0xbe3a4f38	-0.18194282
61	0xbd71ffed	-0.05908196
62	0x3a9c644d	0.0011931747
63	0xbe0e3c29	-0.13890137
64	0xbe1b54ad	-0.1516902
65	0xbe15ebab	-0.14640681
66	0x3dadf33e	0.084936604
67	0x3dcea95d	0.10090897
68	0xbe8cae4b	-0.27476725
69	0x3e5a0ea6	0.2129465
70	0x3db7d606	0.089763686
71	0x3d7cee84	0.061750904
72	0xbe82b98f	-0.25532195
73	0x3d4bff0e	0.049803786
74	0xbe9ea6e4	-0.30986702
75	0xbea8ee16	-0.32994145
76	0xbc534a0f	-0.012896075
77	0x3d3f42d4	0.04669459
78	0x3ee4453e	0.44584078
79	0xbde2f448	-0.11081749
80	0xbad7482c	-0.0016424707
81	0x3d9279aa	0.07152112
82	0x3de5bdf8	0.11217874
83	0xbdcff65d	-0.10154412
84	0x3d1a7f5e	0.037719123
85	0xbe3d70c9	-0.18500055
86	0xbe1c6ec3	-0.15276627
87	0xbe6e84f6	-0.23292908
88	0x3e8a4934	0.27008975
89	0x3e8ccbd9	0.27499273
90	0xbeadd15c	-0.3394879
91	0xbdb0a7da	-0.08625765
92	0xbe21c56f	-0.15797971
93	0xbebe0951	-0.37116483
94	0xbe17f139	-0.14838113
95	0xbe21e2b5	-0.15809138
96	0xbe1694a9	-0.14705147
97	0xbdcdd736	-0.10050814
98	0xbdfb5893	-0.122727536
99	0xba855edf	-0.0010175369
100	0xbe38b396	-0.18037257
101	0x3e2537e3	0.161346
102	0xbe65ee58	-0.22454202
103	0xbc741f63	-0.014900061
104	0xbc48a09a	-0.012245322
105	0xbe0a10ba	-0.13482943
106	0xbd967a9d	-0.073476054
107	0x3c7c2523	0.015389713
108	0xbd0d296f	-0.034463342
109	0xbdaa8500	-0.08326149
110	0xbe934ef0	-0.28771162
111	0xbe375a20	-0.17905474
112	0xbe4481dc	-0.19190162
113	0xbe41da7f	-0.18931006
114	0x3d9527c0	0.07282972
115	0x3d9e17d3	0.07719388
116	0x3d8c5fd4	0.06854215
117	0xbde92e4c	-0.113857836
118	0xbde77dd5	-0.113032974
119	0xbe420f4a	-0.18951145
120	0x3ccd9604	0.025095947
121	0xbde997ad	-0.11405883
122	0x3e73b569	0.23799671
123	0x3d8678ec	0.06566033
124	0xbe83f433	-0.25772247
125	0xbe1d5db5	-0.15367778
126	0xbd9ba3a3	-0.075995706
127	0xbe24e869	-0.16104282
128	0xbe832e67	-0.2562134
129	0xbdbe7725	-0.09300069
130	0x3d098874	0.033577397
131	0xbe3652ad	-0.17804976
132	0xbe76aa37	-0.2408837
133	0xbdcb4799	-0.099257655
134	0xbebb5d6c	-0.36594713
135	0x3ce9cbf4	0.028539635
136	0x3e8656e6	0.26238173
137	0x3b6ce50b	0.0036147262
138	0xbd8f58e3	-0.06999376
139	0xbe98ed4a	-0.29868537
140	0xbe32c901	-0.1745949
141	0x3e26d70f	0.16292976
142	0x3e1b0811	0.15139796
143	0xbe0047ec	-0.12527436
144	0x3eb9ee05	0.36314407
145	0xbd0da57d	-0.03458165
146	0xbd4976d8	-0.049185604
147	0xbe05a762	-0.13052133
148	0xbe374d3f	-0.17900561
149	0xbe602f89	-0.21893133
150	0x3c768e5d	0.0150485905
151	0xbe869a19	-0.26289442
152	0xbe62963a	-0.2212762
153	0xbdec5c25	-0.11541013
154	0xbe8a374b	-0.2699531
155	0x3dfcbb07	0.1234036
156	0xbe6e091a	-0.2324566
157	0x3e29c9d5	0.16580899
158	0x3c7548b5	0.014970948
159	0x3d9b7864	0.07591322
160	0xbe629017	-0.22125278
161	0xbc9b0020	-0.018920958
162	0xbecbec91	-0.39828923
163	0xbcae36e6	-0.021266412
164	0x3e289677	0.16463648
165	0xbbb52d2f	-0.005529068
166	0x3ed09d80	0.40745163
167	0xbe107c36	-0.14109883
168	0x3e28fe59	0.16503276
169	0xbe1d4b17	-0.15360676
170	0x3d1278e0	0.035759807
171	0xbdd5998c	-0.10429677
172	0x3e023f3a	0.12719432
173	0x3e650d5b	0.22368376
174	0x3e255191	0.16144396
175	0xbd019201	-0.03163338
176	0x3cc7359c	0.024317555
177	0x3e224230	0.15845561
178	0x3e517c41	0.20457555
179	0x3d3cfc66	0.046139143
180	0x3cb0fc71	0.021604748
181	0x3c39c91c	0.011339452
182	0x3df96e2c	0.12179217
183	0xbe4396ae	-0.19100448
184	0xbe59764b	-0.21236531
185	0xbea7f640	-0.3280506
186	0xbe18f265	-0.14936216
187	0x3d2ceb45	0.042216558
188	0xbe464d7a	-0.19365492
189	0x3ec8cc7e	0.39218515
190	0x3cc89b3b	0.024488082
191	0x3dab50e8	0.08365041
192	0x3dbd07ac	0.09229979
193	0x3df24b77	0.118308
194	0xbd9ec53b	-0.077524625
195	0xbec97a94	-0.39351332
196	0xbddab485	-0.106789626
197	0xbed66fd3	-0.4188219
198	0x3e17f21c	0.14838451
199	0x3ef100d2	0.47070938
200	0xbda0c3de	-0.07849859
201	0xbc265dd9	-0.010154211
202	0x3bc14179	0.0058976975
203	0x3d298f7e	0.04139661
204	0xbe8f37c1	-0.27972224
205	0x3d672452	0.056431122
206	0xbd9208e9	-0.07130606
207	0xbc156f33	-0.00912075
208	0xbe01113a	-0.12604228
209	0xbd193841	-0.037407164
210	0xbd161e14	-0.03664978
211	0x3e0c9bf0	0.1373136
212	0xbe0fc654	-0.140405
213	0x3e738bb5	0.23783763
214	0xbcd065cb	-0.025439164
215	0x3e642b15	0.2228206
216	0xbeec4986	-0.46149844
217	0x3c3f4c13	0.011675852
218	0xbec7291c	-0.3889855
219	0x3d57d75e	0.052695625
220	0xbd5bc954	-0.0536588
221	0xbe2b831f	-0.16749237
222	0xbe7b0690	-0.24514222
223	0xbca1c79e	-0.019748505
224	0xbdf1481a	-0.117813304
225	0x3c13a491	0.009011404
226	0xbceb14fb	-0.028696528
227	0x3e0be95b	0.13663237
228	0xbe449319	-0.19196738
229	0xbdc0e4ba	-0.09418626
230	0xbdc6a7ce	-0.09699975
231	0xbe5d1f67	-0.2159401
232	0x3da2c416	0.07947557
233	0x3e953f33	0.2914978
234	0x3e85cd81	0.2613335
235	0xbea19303	-0.31557474
236	0x3e5c7987	0.21530734
237	0xbdec2f7e	-0.11532496
238	0x3e73c0ba	0.23803988
239	0xbe84bd1e	-0.25925535
240	0xbe37c4f0	-0.1794622
241	0xbd634c43	-0.05549265
242	0x3e45d166	0.1931816
243	0x3e2993c9	0.16560282
244	0x3dbccecc	0.09219131
245	0x3dfa2716	0.12214486
246	0x3e1010ec	0.14068955
247	0x3d371ef7	0.044707265
248	0xbd1f635e	-0.038913123
249	0x3dc90fd6	0.098174736
250	0xbe4cb594	-0.19991142
251	0xbed65b70	-0.41866636
252	0xbd938bf8	-0.07204431
253	0xbe9e3d0d	-0.30905953
254	0xbe788774	-0.24270421
255	0xbeba1200	-0.36341858

block1.0.bias f4 [256]
0	0xbc3b1523	-0.011418614
1	0xbe9533c0	-0.29141045
2	0x3e062616	0.13100466
3	0xbec09f15	-0.3762137
4	0xbc6a608e	-0.014305247
5	0xbed3dcdd	-0.41379443
6	0xbd7014de	-0.05861365
7	0x3c98916c	0.01862403
8	0x3cfb0fdd	0.030647213
9	0xbe60778a	-0.219206
10	0xbe255ae6	-0.16147956
11	0xbd1721e4	-0.036897555
12	0xbe32c7b2	-0.1745899
13	0x3cba9664	0.02277679
14	0xbe1b4629	-0.15163483
15	0xbe06fcc4	-0.1318236
16	0xbe98cb37	-0.2984254
17	0x3e098017	0.13427769
18	0xbe5e0ff4	-0.21685773
19	0xbd11ee44	-0.03562762
20	0xbe1fd450	-0.15608335
21	0xbe486455	-0.19569524
22	0xbe4f1323	-0.20222144
23	0xbe0bed10	-0.13664651
24	0xbe73fcad	-0.23826857
25	0xbe90876e	-0.28228325
26	0x3da48a7e	0.08034228
27	0x3ca94044	0.020660527
28	0xbece0b3c	-0.40242946
29	0xbdf34f31	-0.11880339
30	0xbb81455a	-0.003945035
31	0xbd585f9b	-0.05282555
32	0xbe4f0810	-0.2021792
33	0xbeaa7305	-0.33290878
34	0x3d1d8981	0.038461212
35	0x3e04264f	0.12905239
36	0xbd9759c7	-0.073901705
37	0xbe1670db	-0.14691488
38	0xbd5dae4b	-0.054121297
39	0xbcbbd39a	-0.022928048
40	0xbdcbbe5e	-0.09948419
41	0xbe701f40	-0.23449421
42	0xbe0ed364	-0.13947827
43	0xbbc3cf38	-0.00597563
44	0xbba5414f	-0.005043186
45	0xbd5bbfd3	-0.053649735
46	0x3be70fdb	0.0070514507
47	0xbdcb725d	-0.099339224
48	0xbda61018	-0.081085384
49	0x3e9ec192	0.31007057
50	0x3dc2a9c7	0.09505039
51	0xbe789ea8	-0.24279273
52	0xbd42eb89	-0.047587905
53	0xbd0ffa5e	-0.035150878
54	0xbd2992f7	-0.041399922
55	0x3cf126a9	0.02943738
56	0xbe9ed5ac	-0.31022394
57	0x3e75657b	0.23964493
58	0xbe94f530	-0.29093313
59	0x3d465ce4	0.04842843
60	0xbe30c9c7	-0.17264472
61	0xbed3dbc7	-0.41378614
62	0xbebe362f	-0.37150714
63	0xbcb75996	-0.022381585
64	0x3cff8b3a	0.031194318
65	0xbd470bca	-0.048595227
66	0xbd38fc11	-0.045162264
67	0xbdb7827c	-0.08960435
68	0xbe82b84b	-0.2553123
69	0xbe162340	-0.14661884
70	0xbe06ec09	-0.13175978
71	0x3cad067a	0.021121252
72	0x3d954c03	0.07289889
73	0xbea4595f	-0.32099435
74	0x3df573b4	0.11984959
75	0x3d933442	0.07187702
76	0x3e381a4f	0.17978786
77	0x3e36c2e1	0.17847778
78	0xbd8c61b6	-0.068545744
79	0xbe302f3f	-0.17205523
80	0xbe76ce32	-0.24102095
81	0xbe0556e9	-0.13021435
82	0xbe0e16f3	-0.13875942
83	0xbdc650fe	-0.09683417
84	0x3b6891c9	0.0035487285
85	0xbe8e2458	-0.27762103
86	0xbe7f9f53	-0.24963121
87	0xbe0c9157	-0.13727318
88	0xbd5ea4f5	-0.054356534
89	0xbdf769cf	-0.12080728
90	0xbe00beaa	-0.12572733
91	0xbeba630b	-0.3640369
92	0xbe3a46b8	-0.1819104
93	0xbdc4da22	-0.09611918
94	0xbd445c9b	-0.047939878
95	0xbee460f6	-0.44605225
96	0xbd5c468e	-0.053778224
97	0xbea398a1	-0.31952384
98	0xbc5832a3	-0.0131956665
99	0x3e21e002	0.15808108
100	0xbe9c13b0	-0.3048377
101	0xbe496358	-0.19666803
102	0xbd89db61	-0.06731296
103	0xbb77371c	-0.0037722057
104	0xbe198535	-0.1499222
105	0xbecec4ad	-0.40384427
106	0xbe953ae6	-0.29146498
107	0xbd923863	-0.07139661
108	0xbe9f160e	-0.31071514
109	0xbec14c71	-0.37753633
110	0xbe9a3cbd	-0.30124465
111	0x3d37fbff	0.044918057
112	0xbd93a4a4	-0.07209137
113	0xbe1977e5	-0.14987142
114	0x3d9d48d6	0.07679908
115	0xbec40db1	-0.38291696
116	0x3db68a57	0.08913105
117	0xbe45bbb7	-0.19309889
118	0xbed68e41	-0.41905406
119	0x3e239cf9	0.15977849
120	0xbe74a16c	-0.23889703
121	0xbe0512f1	-0.12995507
122	0xbb85ede5	-0.004087197
123	0xbe7a82c5	-0.24463947
124	0xbe576245	-0.2103358
125	0xbe870c15	-0.26376405
126	0x3dd28115	0.10278527
127	0xbe15f78d	-0.14645214
128	0xbe5592ab	-0.2085673
129	0xbd4abcbe	-0.049496405
130	0x3d3ad53e	0.04561352
131	0xbd95bf1f	-0.07311844
132	0xbe00e4ee	-0.1258733
133	0xbd7bf695	-0.061514456
134	0xbe8c0952	-0.2735086
135	0xbea27fd6	-0.31738156
136	0xbe058c28	-0.13041747
137	0xbe882fd8	-0.26599002
138	0xbe0e31a0	-0.13886118
139	0xbe005028	-0.12530577
140	0xbe9c26a9	-0.30498245
141	0xbd89bbf4	-0.06725302
142	0xbda3a163	-0.079897664
143	0xbe977b93	-0.29586467
144	0xbe59b176	-0.21259102
145	0x3db4a2a2	0.08820082
146	0xbe133113	-0.14374189
147	0x39e7a8b5	0.0004418545
148	0x3c2ee5d4	0.0106749125
149	0xbca8747b	-0.020563355
150	0xbd37bbb5	-0.044856746
151	0x3cd8cf39	0.026465999
152	0x3d41cda8	0.04731527
153	0xbdb3a0e2	-0.0877092
154	0xbdafa1ff	-0.0857582
155	0x3d3c4700	0.04596615
156	0xbe8156a6	-0.2526142
157	0xbd0f5bc3	-0.03499962
158	0xbe17c706	-0.14822015
159	0x3e21c950	0.15799451
160	0xbe94b72a	-0.29045993
161	0x3dca0e32	0.09865989
162	0xbd34b1aa	-0.044114746
163	0xbc3ca729	-0.011514463
164	0x3ca32074	0.019912936
165	0xbdcec94d	-0.10096989
166	0xb824650c	-3.9194754e-05
167	0x3dd1a582	0.10236646
168	0x3951a082	0.00019991587
169	0x3db97123	0.09054782
170	0xbd523ce7	-0.051327612
171	0x3de3877d	0.11109827
172	0x3d5b8bc5	0.05360009
173	0x3e2c0300	0.1679802
174	0xbdb1a42d	-0.08673892
175	0xbd8f8e09	-0.07009513
176	0xbe3a783b	-0.18209927
177	0x3e115ffe	0.14196774
178	0x3e1efbbe	0.1552572
179	0xbe808664	-0.25102532
180	0xbe878e15	-0.26475587
181	0xbe30f855	-0.17282231
182	0x3dcc55a6	0.09977274
183	0x3e638139	0.22217263
184	0xbda1a3b9	-0.07892556
185	0xbeacd15f	-0.33753487
186	0xbe95dd89	-0.2927058
187	0x3bc4230c	0.005985623
188	0x3c785972	0.015158044
189	0xbdbc03bf	-0.09180402
190	0xbe7bf5f0	-0.24605536
191	0xbee86c61	-0.45395187
192	0x3caa9b67	0.020826055
193	0xbeb2fee5	-0.34960094
194	0xbdcd4915	-0.10023705
195	0xbda7b2b2	-0.0818838
196	0xbeac32c4	-0.3363248
197	0xbdfb74d5	-0.12278143
198	0xbd8f492d	-0.06996379
199	0x3d04d4cd	0.032429505
200	0x3c53d626	0.012929475
201	0xbe2af54e	-0.16695139
202	0x3e164eb1	0.14678456
203	0xbd88d74f	-0.06681692
204	0x3d327db9	0.04357693
205	0xbe863e5a	-0.26219445
206	0xbea0b24f	-0.3138604
207	0xbeb11bee	-0.3459162
208	0xbdf07bc2	-0.11742355
209	0xbe00720e	-0.12543508
210	0xbe028570	-0.12746215
211	0xbe0e2f85	-0.13885315
212	0x3e19e04f	0.15026973
213	0x3d807923	0.06273105
214	0xbe4d6c68	-0.20060885
215	0xbc8bf940	-0.017086625
216	0xbe7036cc	-0.23458403
217	0xbe0437f3	-0.12911968
218	0xbdc24f7d	-0.094878174
219	0xbe6b18e6	-0.22958717
220	0x3d7cf607	0.061758067
221	0x3c9176fd	0.017756933
222	0xbec1c08a	-0.37842208
223	0xbe728193	-0.23682241
224	0xbde13603	-0.1099663
225	0xbe02a57f	-0.12758444
226	0xbe54ea91	-0.20792605
227	0xbed614ea	-0.4181283
228	0xbe591d8b	-0.21202676
229	0xbccdbe1c	-0.025115065
230	0x3b8d1ed3	0.004306653
231	0xbe809d66	-0.25120085
232	0x3d026eeb	0.03184406
233	0xbe34b14d	-0.1764576
234	0x3ea76093	0.32690868
235	0xbd0bb140	-0.034104586
236	0x3ca4fbc4	0.020139582
237	0xbdd8a15d	-0.105776526
238	0xbd911a89	-0.07085139
239	0x3d855784	0.06510833
240	0xbd8596f7	-0.06522935
241	0x3d8c79dd	0.06859181
242	0xbea863b0	-0.32888556
243	0xbd291816	-0.041282736
244	0xbe18e1c6	-0.14929876
245	0xbe4162c4	-0.18885332
246	0xbd8377d8	-0.06419343
247	0xbe8d68ec	-0.27619112
248	0xbdd15f23	-0.10223224
249	0x3ea36cb0	0.3191886
250	0xbd3577ee	-0.044303827
251	0xbe94792d	-0.289987
252	0xbdf98f16	-0.121854946
253	0xbdc9424b	-0.098270975
254	0x3d4333f0	0.047656953
255	0x3e5b285f	0.21402119

block2.0.weight f4 [256, 256]
0	0xbc9357f4	-0.017986275
1	0xbd5ee459	-0.054416988
2	0x3d8bbeb5	0.06823484
3	0x3d647fce	0.055785947
4	0x3cc3d62f	0.023905842
5	0xbd694b20	-0.05695641
6	0xbd605323	-0.054766785
7	0x3e5d3e33	0.21605758
8	0x3c4bce18	0.012439273
9	0x3d174e30	0.0369398
10	0xbd2e18bd	-0.04250406
11	0xbd13236f	-0.035922464
12	0xbc62a3bf	-0.013832985
13	0x3d5e37f0	0.054252565
14	0xbd5bbbd4	-0.053645924
15	0x3caab2b0	0.020837158
16	0x3c2ba4f5	0.010476341
17	0x3de8f613	0.1137506
18	0x3e8acf66	0.27111357
19	0x3e00cad4	0.12577373
20	0xbcdba1fd	-0.02681064
21	0x37268d6c	9.927298e-06
22	0xbdb19915	-0.08671776
23	0x385e8b01	5.3058382e-05
24	0x3e5f2088	0.21789753
25	0x3db2a084	0.08722022
26	0xbc90b863	-0.017666047
27	0xbe043b7d	-0.12913318
28	0xbd7c7db7	-0.06164333
29	0xbd85384a	-0.06504877
30	0x3d486db2	0.04893274
31	0x3c07a490	0.008278981
32	0x3d9d347a	0.07676025
33	0x3e09af39	0.13445748
34	0xbc429575	-0.011876454
35	0xbe306058	-0.17224252
36	0x3d683888	0.056694537
37	0x3d78349e	0.060597055
38	0xbe184892	-0.14871433
39	0x3d8ce35b	0.06879302
40	0xbda97192	-0.08273615
41	0x3de9ac7d	0.11409853
42	0xbe2193fe	-0.15779111
43	0xbe3f813a	-0.1870164
44	0xbd08e8be	-0.033425085
45	0xbe61e975	-0.22061713
46	0xbd076991	-0.03305966
47	0x3e47d63c	0.19515318
48	0xbdbb2716	-0.091383144
49	0x3d220739	0.03955767
50	0xbd1c7c8c	-0.038204715
51	0xbd4595d8	-0.048238605
52	0xbc8b104a	-0.01697554
53	0xbd5a0211	-0.053224627
54	0x3bfed54c	0.007776892
55	0xbcf973a7	-0.030450655
56	0x3c5c4e8b	0.0134464605
57	0x3d846df3	0.06466284
58	0x3d67515b	0.05647407
59	0xbd7d16a7	-0.06178918
60	0x3e9cd39e	0.306302
61	0x3d6820a7	0.056671765
62	0x3b32ec84	0.0027301619
63	0x3e79c06c	0.2438981
64	0x3de82328	0.113348305
65	0xbd50ffeb	-0.051025312
66	0xbdda1f9c	-0.1065056
67	0xbdb6538d	-0.08902655
68	0x3c398e78	0.011325471
69	0x3d424a4b	0.047434133
70	0xbe8723a9	-0.26394394
71	0xbdd3b291	-0.10336793
72	0x3df3f719	0.119123645
73	0xbd119ec3	-0.035551798
74	0x3bb27aad	0.005446753
75	0xbd54e306	-0.05197432
76	0x3e707cc7	0.23485099
77	0xbd3a53df	-0.045490142
78	0x3dca5acb	0.09880599
79	0xbdbc0361	-0.09180332
80	0x3c31381d	0.010816601
81	0xbd693d82	-0.056943424
82	0xbda94b83	-0.08266356
83	0xbd91b97f	-0.07115459
84	0x3cdcb25b	0.026940515
85	0xbc2642e8	-0.010147788
86	0x3b16ef05	0.002303065
87	0xbde9e6ae	-0.11420952
88	0x3d8bac81	0.06820012
89	0xbd8a98e9	-0.067674465
90	0xbdfc2e30	-0.12313497
91	0x3d1d9c0f	0.038478907
92	0x3e68f099	0.2274803
93	0x3d045896	0.032311045
94	0xbdf6ae79	-0.12044997
95	0xbd25afe6	-0.040450953
96	0x3d32c326	0.04364314
97	0xbe953663	-0.29143056
98	0x3d377015	0.044784624
99	0x3e1ee7e4	0.15518147
100	0xbc170ece	-0.009219838
101	0x3d3539da	0.044244625
102	0x3d7254c4	0.05916287
103	0xbe1ed96a	-0.15512624
104	0xbdad691a	-0.08467312
105	0x3b2627e1	0.002535336
106	0xbd0e350c	-0.03471856
107	0xbe05c74e	-0.1306431
108	0x3da16d5f	0.07882189
109	0xbddcd222	-0.10782267
110	0xbbe96d6f	-0.007123641
111	0x3d2d844b	0.042362493
112	0x3da61674	0.08109751
113	0xbd3affb9	-0.045654032
114	0x3d45ce7d	0.048292626
115	0x3d292985	0.04129936
116	0xbcb27be1	-0.021787586
117	0xbc731ba7	-0.014838136
118	0xbce76faf	-0.028251497
119	0x3d922125	0.07135228
120	0x3d41e2ec	0.04733555
121	0x3db00336	0.085943624
122	0x3d0e2a37	0.034708228
123	0x3c3bec7d	0.011469957
124	0x3d56ce4b	0.05244283
125	0xbc46db69	-0.012137272
126	0xbcd6ba0f	-0.026211767
127	0xbe303f68	-0.17211688
128	0x3ded3015	0.115814365
129	0xbd2d6e2a	-0.04234139
130	0xbd89ea50	-0.06734145
131	0x3b73225d	0.003709934
132	0x3e4e1ba0	0.20127726
133	0x3c94949b	0.018137267
134	0x39fafb2e	0.0004787086
135	0x3e1e2e57	0.15447365
136	0x3ccc83d5	0.024965206
137	0x3c525010	0.012836471
138	0x3d499674	0.04921575
139	0xbdfcda57	-0.123463325
140	0xbc89888d	-0.016788745
141	0xbcb9c8ae	-0.0226787
142	0xbcf29464	-0.029611774
143	0xbd8058ab	-0.06266912
144	0xbe19087d	-0.14944644
145	0xbd100e41	-0.035169844
146	0x3d7fc326	0.062441967
147	0xbd97e6f9	-0.074171014
148	0x3cf4c34d	0.029878283
149	0xbd847d07	-0.064691596
150	0x3dced064	0.10098341
151	0xbe0d4d90	-0.13799119
152	0x3e71291b	0.23550837
153	0xbe1c45d7	-0.15261017
154	0xbc77d7e4	-0.015127156
155	0x3d78606b	0.060638826
156	0xbada0a05	-0.0016635066
157	0x3df05ac0	0.11736059
158	0xbd918d4a	-0.07107027
159	0x3d5de3e3	0.054172408
160	0xbd0330ec	-0.032029077
161	0xbd2dc410	-0.042423308
162	0xbe1f5070	-0.15558028
163	0x3e120bc1	0.14262296
164	0xbdc4d048	-0.09610039
165	0x3d25d8ae	0.040489845
166	0x3dee546e	0.116371974
167	0xbdfc1001	-0.1230774
168	0xbd33d2e3	-0.04390229
169	0x3d463e59	0.048399303
170	0xbd232e5b	-0.03983913
171	0x3d7cff3b	0.061766844
172	0xbdb96a27	-0.0905345
173	0xbd8c3a8d	-0.06847105
174	0x3d9c9bef	0.076469295
175	0x3bf05eee	0.0073355353
176	0xbd8560df	-0.06512617
177	0xbd662097	-0.056183424
178	0x3ac45978	0.0014980277
179	0xbe487bf6	-0.19578537
180	0xbe0672a9	-0.13129677
181	0xbbd063ee	-0.006359569
182	0xbaa50a15	-0.0012591506
183	0xbd0440f9	-0.032288525
184	0xbd848f55	-0.06472651
185	0x3bdbfd3f	0.006713539
186	0x3ce424de	0.02784961
187	0xbd904467	-0.07044297
188	0xbcc1e64b	-0.023669383
189	0xbde4087f	-0.11134433
190	0x3e1c53ef	0.15266393
191	0xbd11c05d	-0.035583843
192	0x3d8d516b	0.06900295
193	0x3cc007a7	0.023441149
194	0xbdc7fd41	-0.09765101
195	0x3dda6564	0.1066387
196	0x3be6da26	0.0070450483
197	0x3dd31d21	0.1030829
198	0x3be8da91	0.0071061333
199	0x3d4e1cad	0.050320316
200	0xbd058f8a	-0.032607593
201	0x3cc330c3	0.023826962
202	0x3cf1e8c7	0.029529942
203	0x3cf639a7	0.030056788
204	0xbe08fc98	-0.13377607
205	0x3cf09bf3	0.029371237
206	0xbde43800	-0.11143494
207	0x3e52602a	0.20544496
208	0xbd627aaa	-0.055292763
209	0xbe0ae58e	-0.1356413
210	0x3e67b85c	0.22628921
211	0xbe819618	-0.25309825
212	0x3db63e07	0.088985495
213	0xbd05d274	-0.032671407
214	0x3d778463	0.06042899
215	0xbd261057	-0.040542927
216	0x3e5ffc95	0.21873696
217	0xbc20fa53	-0.009825307
218	0xbdf4514d	-0.119295694
219	0x3cc73c4c	0.024320744
220	0x3df58e67	0.11990052
221	0xbde06579	-0.109568544
222	0xbe8686d2	-0.26274735
223	0x3d74a814	0.059730604
224	0x3c6a8eca	0.01431627
225	0xbd08f105	-0.03343298
226	0x3e0e7fa3	0.13915877
227	0x3b0169a2	0.00197468
228	0xbd6e7700	-0.058218956
229	0xbb512cb0	-0.0031917505
230	0x3ece2cef	0.40268657
231	0xbdd29699	-0.102826305
232	0xbbdaf0cc	-0.0066815373
233	0xbd3e9982	-0.046533115
234	0x3e784d58	0.24248254
235	0x3c8aafd7	0.01692955
236	0x3e526190	0.2054503
237	0xbb960835	-0.004578615
238	0x3d68344d	0.056690503
239	0x3da8ab10	0.082357526
240	0x3d88c935	0.06679002
241	0xbe195901	-0.14975359
242	0xbdd4d319	-0.10391826
243	0x3e30e17a	0.17273512
244	0x3de2731d	0.11057112
245	0x3d4c9b0d	0.049952555
246	0x3babcf57	0.0052432227
247	0xbd0034f4	-0.0313005
248	0x3ddc75e1	0.10764671
249	0x3d531d70	0.051541746
250	0xbc20e74b	-0.00982077
251	0xbd9b3039	-0.07577557
252	0x3e1ae112	0.1512492
253	0x3ca4f931	0.020138355
254	0x3db45ab3	0.08806362
255	0xbd20ea95	-0.039286215

block2.0.bias f4 [256]
0	0x3f4cd3ad	0.8001049
1	0xbd43c6fa	-0.04779718
2	0xbd6019a8	-0.054711968
3	0x3e6a6ee5	0.22893865
4	0xbd2ee231	-0.04269618
5	0x3d4171fe	0.047227852
6	0xbd4043af	-0.046939548
7	0xbe0ce3a5	-0.13758714
8	0xbccccf0e	-0.025001075
9	0xbda3d977	-0.080004625
10	0x3d0fc3bf	0.035098787
11	0x3dbf3c93	0.093377255
12	0x3e168c62	0.1470199
13	0xbcb722bd	-0.022355432
14	0xbcc99c1b	-0.02461057
15	0xbd4a22a8	-0.049349457
16	0x3cb013ee	0.021493878
17	0xbd8f3e8f	-0.06994354
18	0xbdabf82b	-0.08396944
19	0xbdba2723	-0.09089496
20	0xbd72373e	-0.059134714
21	0xbd67cdd5	-0.05659278
22	0xbd5fa695	-0.054602224
23	0xbc4643cc	-0.012101125
24	0x3bab79dc	0.0052330326
25	0xbc8a224a	-0.016862053
26	0x3e064cc3	0.1311522
27	0x3e44a7ca	0.19204631
28	0xbd5af4c2	-0.053456075
29	0xbc70009a	-0.014648581
30	0xbb857f1c	-0.0040739905
31	0x3f5c56ff	0.86070246
32	0x3d187ca3	0.037228238
33	0xbceef108	-0.029167667
34	0x3e0a336a	0.13496175
35	0xbe0a2946	-0.13492307
36	0xbd4fdd1b	-0.050747972
37	0xbae4f06c	-0.0017466671
38	0xbdaaf254	-0.08347002
39	0xbcfb50b3	-0.030678129
40	0xbcfa5ca7	-0.030561758
41	0x3eb6c1b9	0.35694674
42	0x3c317018	0.010829948
43	0x3c56b154	0.013103802
44	0x3f8434e4	1.0328641
45	0xbd960a40	-0.07326174
46	0xbc9d3177	-0.019188626
47	0xbcf46eb0	-0.029837936
48	0xbde615c6	-0.11234622
49	0x3c7c45e1	0.01539752
50	0x3dfe8853	0.124283455
51	0x3d11b81c	0.03557597
52	0xbcec0dce	-0.028815176
53	0xbd593704	-0.053030983
54	0xbda02549	-0.078196116
55	0xbda6af9b	-0.08138963
56	0x3c4933cb	0.012280415
57	0x3ce7743b	0.028253665
58	0xba076d95	-0.00051661703
59	0xbdf973a3	-0.12180259
60	0xba838437	-0.001003391
61	0xbd4f6451	-0.05063278
62	0x3de35be9	0.11101515
63	0x3d10c57f	0.035344597
64	0xbd9549f0	-0.07289493
65	0xbd8132b5	-0.063085
66	0x3dbf74fe	0.09348486
67	0xbc350fda	-0.011051143
68	0xbd0e9610	-0.03481108
69	0xbd3442d0	-0.04400903
70	0xbd274e86	-0.04084637
71	0xbd8e6939	-0.069536634
72	0xbd956dcb	-0.07296332
73	0x3ddacf80	0.10684109
74	0xbbc2fcca	-0.005950545
75	0xbd404d06	-0.046948455
76	0xbd89dde8	-0.067317784
77	0x3d158c80	0.036510944
78	0xbddd1756	-0.107954666
79	0xbd9c9050	-0.07644713
80	0xbd943f09	-0.072385855
81	0xbd7dc80f	-0.06195837
82	0xbd982f24	-0.07430866
83	0x3d82c0fa	0.063844636
84	0xbd821038	-0.0635075
85	0xbd951863	-0.07280042
86	0xbdbcfdb6	-0.09228079
87	0x3c8918f2	0.016735528
88	0x3da0139f	0.078162424
89	0xbc5a41cd	-0.013321352
90	0xbd35cbbe	-0.044383757
91	0xbc5d68e5	-0.013513778
92	0x3e99bdf3	0.30027732
93	0xbd9364e2	-0.07196976
94	0x3e7b7981	0.24558069
95	0xbd23becf	-0.03997689
96	0xbd83a8c4	-0.06428674
97	0xbce8c2c0	-0.028413177
98	0x3c056e21	0.008143933
99	0xbcc46f61	-0.02397889
100	0x3e1daed8	0.15398729
101	0xbcd3309a	-0.025780011
102	0x3d9d4bc5	0.076804675
103	0xbc769e2a	-0.015052358
104	0xbd63bdee	-0.055601053
105	0x3e0717d3	0.13192682
106	0x3dbb5c34	0.09148446
107	0xbd8eda00	-0.06975174
108	0xbd96fa6c	-0.07371983
109	0x3ce5c028	0.028045729
110	0xbe244d75	-0.16045173
111	0xbd92701c	-0.071502894
112	0xbdf7eaeb	-0.12105354
113	0xbbfdf409	-0.0077500385
114	0xbe096ecf	-0.13421176
115	0xbd7acc12	-0.061229773
116	0xbe0a3afb	-0.13499062
117	0x3e6409da	0.22269383
118	0xbe0cb339	-0.13740243
119	0xbe08c885	-0.13357742
120	0xbd036edf	-0.032088157
121	0x3d042c4d	0.03226881
122	0xbb55ed6f	-0.0032642742
123	0xbc8f1413	-0.017465627
124	0xbb452a47	-0.0030085014
125	0xbdc55e42	-0.09637119
126	0xbdb32b88	-0.08748537
127	0xbd23a2f3	-0.039950322
128	0xbce4a7b0	-0.02791199
129	0xbdc68ee7	-0.09695225
130	0x3df8b708	0.121442854
131	0xbd9d05ed	-0.07667146
132	0x3dd5b219	0.1043436
133	0xbdded6e8	-0.10880834
134	0x3eb1cca2	0.34726435
135	0xbc41e664	-0.011834715
136	0xbd79d53b	-0.060994368
137	0xbc8afcb8	-0.016966209
138	0xbd960430	-0.073250175
139	0xbd357759	-0.044303272
140	0xbd0c1984	-0.03420402
141	0xbc16d598	-0.009206198
142	0x3c0c427a	0.008560771
143	0x3cb39581	0.021921875
144	0x3f0baf62	0.5456449
145	0x3a008247	0.00049022253
146	0xbd4f6e1b	-0.050642114
147	0x3b22d72b	0.0024847488
148	0xbce1e00e	-0.027572658
149	0xbb5e8f50	-0.0033959933
150	0xbdba9e8d	-0.091122724
151	0xbdb3d7ac	-0.087813705
152	0x3e467ae0	0.1938281
153	0xbd871ba4	-0.06597069
154	0x3baa2dd2	0.0051934505
155	0xbc1a7cb3	-0.009429145
156	0xbc68e707	-0.014215237
157	0xbd108d19	-0.03529081
158	0xbe15f92a	-0.1464583
159	0xbd3cc21c	-0.046083555
160	0x3b8073d3	0.0039200573
161	0xbc813b05	-0.015775213
162	0xbd351b5e	-0.044215553
163	0xbb9ac838	-0.004723575
164	0xbb9bb39e	-0.0047516366
165	0xbc85c55e	-0.016329464
166	0xbd9d35d9	-0.07676286
167	0xbcf2bc3b	-0.02963077
168	0xbdc0ffc0	-0.094237804
169	0xbcf28bb8	-0.029607639
170	0xbd945e54	-0.07244554
171	0xbdaa31ce	-0.08310281
172	0xbc836cb9	-0.016043054
173	0x3e121cd9	0.14268817
174	0xbc8736bc	-0.016505592
175	0x3befcc2a	0.0073180394
176	0xbd38a0b9	-0.045075152
177	0xbcb6db9f	-0.02232152
178	0xbce1b4ec	-0.02755209
179	0xbdb71bd8	-0.08940858
180	0xbd0259ec	-0.031824037
181	0x3cb9c053	0.022674715
182	0xbd8cb384	-0.068701774
183	0xbcc4927c	-0.02399563
184	0x3cc714df	0.024301944
185	0xbddb3605	-0.10703663
186	0x3c9ec429	0.019380646
187	0xbcf595dc	-0.029978685
188	0xbd59b872	-0.053154416
189	0xbd3a9176	-0.04554888
190	0xbdad351e	-0.08457397
191	0xbc535e67	-0.012900925
192	0xbd2617b6	-0.040549956
193	0xbd1acb32	-0.03779144
194	0xbd01bc82	-0.031673916
195	0x3de0c788	0.109755576
196	0xbd0d6840	-0.03452325
197	0xbc93f8e3	-0.018063014
198	0xbcd960d3	-0.026535427
199	0x3e279b7a	0.16367903
200	0x3b0e7580	0.0021737516
201	0x3a8844a2	0.0010396431
202	0xbd70b2d9	-0.058764312
203	0xbcae59aa	-0.02128299
204	0x3ddaea37	0.10689204
205	0x3e191ed0	0.1495316
206	0xbd5d10e0	-0.05397117
207	0xbdd97c8b	-0.10619458
208	0xbda30a95	-0.07961003
209	0xbc6bba5a	-0.014387691
210	0xbcd4166b	-0.025889596
211	0x3dbad546	0.0912271
212	0x3ca8c7f1	0.020603152
213	0x3e3cbe32	0.18431929
214	0xbb1b18ff	-0.0023666022
215	0xbd4a5871	-0.04940075
216	0x3e85e310	0.26149797
217	0xbda4eb09	-0.08052642
218	0xbd7ff2f0	-0.062487543
219	0x3e0f39e4	0.13986927
220	0x3bc714da	0.0060754837
221	0xbbafe87b	-0.00536829
222	0x3a31ad04	0.00067777955
223	0xbdaaf212	-0.083469525
224	0x3d2ad26c	0.04170458
225	0xbc68de19	-0.014213108
226	0xbda37283	-0.07980826
227	0x3c91e38a	0.017808694
228	0x3b2b7165	0.0026160118
229	0x3c347193	0.011013406
230	0xbd88c728	-0.06678611
231	0xbda70562	-0.081553236
232	0xbd0a5d7b	-0.033780556
233	0xbc75e937	-0.015009216
234	0xbce71580	-0.028208494
235	0xbd3c0dcf	-0.045911606
236	0x3d71d1f8	0.059038132
237	0x3b87ca26	0.004143971
238	0xbbc1351f	-0.005896225
239	0xbd83bbbe	-0.06432293
240	0x3e392bb5	0.18083079
241	0xbd85049c	-0.0649502
242	0xbd340c2d	-0.043956924
243	0xbb999e43	-0.0046880557
244	0xbc9c92a3	-0.01911289
245	0xbd3dff33	-0.046385955
246	0xbcf94220	-0.030427039
247	0xbc9af6d9	-0.018916534
248	0xbd01cdf3	-0.03169055
249	0x3e20dc53	0.15709047
250	0xbd35362f	-0.044241127
251	0x3dcdc2ec	0.10046944
252	0xbd0c2226	-0.034212254
253	0x3ea113f3	0.31460533
254	0x3cc28bb0	0.023748249
255	0xbd32e3ed	-0.0436744

classifier.0.weight f4 [3, 256]
0	0x3e1c4aea	0.15262952
1	0x3bbfea57	0.005856793
2	0x3c4bb1a4	0.01243249
3	0xbd8b9444	-0.06815389
4	0x3b866c67	0.004102278
5	0xbb070bf8	-0.00206065
6	0xbd5082c2	-0.05090595
7	0x3d6e1267	0.05812302
8	0xbc2f775c	-0.01070961
9	0xbd4759c2	-0.048669584
10	0xba950cfc	-0.0011371667
11	0x3e8488a7	0.25885507
12	0xbdce1bd4	-0.100639015
13	0xbcb8c1c5	-0.022553334
14	0x3c89dfb6	0.016830307
15	0xbd552416	-0.052036367
16	0xbe81fa2a	-0.25386173
17	0x3ceea31f	0.029130517
18	0xbd04dc31	-0.032436553
19	0x3d1717bb	0.036887866
20	0x3d58bded	0.052915502
21	0xbcfe222a	-0.03102215
22	0xbcd5c0b2	-0.02609286
23	0xbd384c96	-0.044994913
24	0x3d0aef3b	0.033919554
25	0xbc8c0743	-0.017093306
26	0xbd9d4125	-0.07678441
27	0x3d1f130e	0.03883653
28	0x3c24675e	0.01003441
29	0xbc9d4573	-0.019198155
30	0x3e09028b	0.13379876
31	0x3e1e7217	0.1547321
32	0xbd97338c	-0.07382879
33	0xbad15eda	-0.0015973703
34	0xbdaf099e	-0.08546756
35	0xbd25bc0a	-0.04046253
36	0x3c121c60	0.008917898
37	0xbd16c11a	-0.03680525
38	0xbc4ae324	-0.012383256
39	0x3cfe0ff5	0.031013468
40	0xbe0902d7	-0.1337999
41	0x3ea6fd03	0.32614908
42	0xbce8b6f3	-0.02840755
43	0xbcac5d58	-0.021040604
44	0x3e1068cc	0.14102477
45	0x3d1cd6c7	0.038290765
46	0xbc005312	-0.0078323055
47	0xbc0aabed	-0.008463842
48	0xbd2539b0	-0.04033822
49	0x3d1b1931	0.03786582
50	0xbdcfd196	-0.10147397
51	0xbd4447e6	-0.04792013
52	0xbb02a3a5	-0.0019933966
53	0xbd4f9066	-0.05067482
54	0x3d0845b2	0.03326959
55	0xbdd1e3b6	-0.102485105
56	0xbd46af64	-0.04850711
57	0xbd5e4c51	-0.054272
58	0xbd0c6d14	-0.034283713
59	0xbd1d108c	-0.03834586
60	0x3d723fc4	0.059142843
61	0x3d0b0f11	0.033949915
62	0xbde5d26a	-0.11221774
63	0x3d4fdfbb	0.050750475
64	0x3c40feea	0.011779526
65	0x3cb6e214	0.0223246
66	0x3dc53691	0.09629548
67	0xbbeff01d	-0.007322325
68	0xbd55983d	-0.05214714
69	0xbcea2fb5	-0.028587202
70	0xbcbf43e9	-0.023347812
71	0xbc044ae4	-0.008074496
72	0xbd1378e7	-0.036003973
73	0xbdc7c2b2	-0.09753932
74	0xbe19cc22	-0.15019277
75	0xbba0dbf9	-0.0049090353
76	0xbc226462	-0.009911628
77	0xb99715c6	-0.00028817187
78	0xbd9e76eb	-0.077375256
79	0xbc7d6abd	-0.015467343
80	0x3c164a9c	0.009173062
81	0x3cb0b06b	0.021568498
82	0xbb875081	-0.00412947
83	0xbd4e5928	-0.050377995
84	0xbd8ecb7e	-0.06972407
85	0x3c8ff2c6	0.017571818
86	0xbcd82832	-0.026386354
87	0xbcaf42be	-0.02139413
88	0x3df360b3	0.11883678
89	0x3c89dcfa	0.016829003
90	0xbc52603b	-0.012840326
91	0x3c8468d1	0.016163262
92	0x3e9b1715	0.30291048
93	0xbcd0a002	-0.025466923
94	0xbcd45274	-0.025918223
95	0xbd805014	-0.06265274
96	0x3cd0f962	0.02550954
97	0xbc25d799	-0.010122203
98	0xbdbb7268	-0.09152681
99	0xbbc1c210	-0.0059130266
100	0xbd96494e	-0.073382005
101	0xbd0f0c18	-0.034923643
102	0xbdc611ae	-0.09671341
103	0x3b39e63e	0.0028365995
104	0xbbde68b6	-0.006787385
105	0xbd650414	-0.055912092
106	0x3e2f486b	0.17117469
107	0xbd0d7809	-0.034538303
108	0xbc4f8b73	-0.012667525
109	0x3e460701	0.1933861
110	0x3cc393c5	0.023874173
111	0xbca1e803	-0.019763952
112	0x3d94f6e0	0.0727365
113	0x3c4cd2af	0.012501403
114	0xbdd77075	-0.10519496
115	0xb94dce64	-0.0001962721
116	0xbd826f03	-0.0636883
117	0x3e8deb95	0.27718797
118	0xbe5c55a9	-0.21517052
119	0x3cd28a40	0.025700688
120	0x3c0a21cb	0.008430908
121	0x3c374aa0	0.011187226
122	0xbce8dffe	-0.02842712
123	0xbd269180	-0.040666103
124	0xbd61c73f	-0.055121657
125	0x3d3aa57a	0.045567967
126	0x3c13420f	0.008987918
127	0x3cf0a52e	0.029375639
128	0xbc790a8b	-0.015200268
129	0xbd02edbf	-0.031965014
130	0xbdbecccc	-0.09316406
131	0x3da93539	0.082621045
132	0x3e877ddd	0.26463214
133	0xbc20066c	-0.009767156
134	0x3da7a25f	0.08185267
135	0xb9c21fb8	-0.00037026196
136	0xbd6237fa	-0.055229165
137	0x3c61e454	0.013787348
138	0x3cafc7d6	0.021457594
139	0x3d1e176c	0.038596556
140	0x3dcdac5d	0.10042641
141	0xbc76ab69	-0.015055516
142	0x3bcc250b	0.006230002
143	0xbc34361e	-0.010999231
144	0x3e4ad3f9	0.19807424
145	0x3be16c0c	0.0068793353
146	0xbd09b5a1	-0.03362048
147	0x3bb5ef38	0.0055521987
148	0xbcaf8b9f	-0.021428881
149	0xb8aa4af1	-8.1201906e-05
150	0x3d12881d	0.03577434
151	0x3c20c8c4	0.009813491
152	0x3e881f7f	0.2658653
153	0x3c8efc57	0.01745431
154	0xbd2b09c0	-0.041757345
155	0xbc65ad8a	-0.014018426
156	0x3dc6c432	0.0970539
157	0x3b892c3b	0.004186181
158	0x3d605396	0.054767214
159	0xbb0fac55	-0.0021922786
160	0x3ce6b587	0.02816273
161	0x3d679c3e	0.05654549
162	0xbb1e87f8	-0.002418993
163	0x3cb60905	0.022221098
164	0xbd43d1fb	-0.047807675
165	0x3d09031b	0.033450227
166	0xbcdc5e54	-0.026900448
167	0xbe52ba7f	-0.20578955
168	0x3c39c165	0.011337613
169	0x3d3de38b	0.04635958
170	0x3d3f2098	0.046661943
171	0x3ac2d122	0.0014863352
172	0x3c43cec2	0.01195115
173	0xbd7c5751	-0.06160671
174	0xbb7e3dcb	-0.0038794156
175	0x3b016de4	0.0019749338
176	0xbce1caf9	-0.027562605
177	0x3d0e1772	0.034690328
178	0xbcbaaac4	-0.022786506
179	0xbd985e8c	-0.074399084
180	0xbc91ad0f	-0.017782716
181	0x3d36ad5b	0.04459892
182	0x3ada6744	0.0016662856
183	0x3c3502d1	0.011048035
184	0xbc9e7df4	-0.019347169
185	0xbd985b08	-0.07439238
186	0xbd6c8e76	-0.05775305
187	0x3b6c03cc	0.0036013005
188	0x3ca54f0d	0.020179296
189	0x3cff60b5	0.031174043
190	0xbc00032f	-0.007813259
191	0x3d35221c	0.044221982
192	0xbdf6a079	-0.120423265
193	0xbc0843e0	-0.008316964
194	0x3cc58811	0.024112733
195	0x3e1f4fa9	0.15557732
196	0x3c216a43	0.009851995
197	0xbc944080	-0.018097162
198	0xbc9228d9	-0.017841743
199	0xbdb027e6	-0.0860136
200	0xbaed740d	-0.0018116251
201	0x3d26358e	0.040578417
202	0xbc19eb40	-0.009394467
203	0x3d584816	0.05280312
204	0x3ae36921	0.0017350056
205	0xbdc63378	-0.09677786
206	0x3b4effc5	0.0031585556
207	0x3be2d43b	0.0069222725
208	0x3d4192c9	0.047259126
209	0xbbb05e3e	-0.0053823283
210	0x3bbc3ec5	0.0057447874
211	0x3dd9a37b	0.106268845
212	0x3d9802e1	0.07422424
213	0xbd4f6703	-0.05063535
214	0xbdad26fe	-0.08454703
215	0xbc5f8da9	-0.013644614
216	0x3e4436e8	0.1916157
217	0xbd279972	-0.04091782
218	0xbcce2f92	-0.025169168
219	0x3ebcb5cd	0.36857453
220	0x3d1619a8	0.03664556
221	0xbb9015ce	-0.0043971306
222	0xbdc2cbd9	-0.09511537
223	0x3c88c301	0.016694548
224	0xbe80efc9	-0.25182942
225	0x3be36a09	0.0069401306
226	0x3c5e57e7	0.013570762
227	0xbd160b79	-0.036632035
228	0xbc813dca	-0.015776534
229	0x3c14097e	0.009035466
230	0x3d04043d	0.032230604
231	0xbdb1c4fe	-0.086801514
232	0x3bb4c97d	0.0055171833
233	0xbacda4c0	-0.0015689358
234	0xb9e88183	-0.00044346982
235	0x3c06789f	0.008207469
236	0x3db37dc8	0.08764225
237	0x3a16f35f	0.0005758311
238	0xbd6f82f4	-0.058474496
239	0xbda96303	-0.08270838
240	0xbd93dda6	-0.072200105
241	0xbe8e7052	-0.2782007
242	0x3c92c306	0.01791526
243	0xbc0f597a	-0.00874936
244	0x3d30f204	0.043199554
245	0x3e443e08	0.19164288
246	0xbcaf0986	-0.021366846
247	0x3c98d399	0.018655585
248	0x3a542756	0.000809302
249	0x3e5726ea	0.21010938
250	0xbd489e5e	-0.048979156
251	0xbd94ed37	-0.07271808
252	0xbcbeee3c	-0.023306958
253	0x3e21e4d6	0.1580995
254	0xbe41caba	-0.1892499
255	0x3cd7464b	0.026278635

classifier.0.bias f4 [3]
0	0x3dfc1883	0.12309363
1	0xbe6f7f6b	-0.2338845
2	0xbe659107	-0.22418605
